…
 ship  ship horse['alexnet', 'densenet121', 'densenet161', 'densenet169', 'densenet201', 'googlenet', 'inception_v3', 'mnasnet0_5', 'mnasnet0_75', 'mnasnet1_0', 'mnasnet1_3', 'mobilenet_v2', 'resnet101', 'resnet152', 'resnet18', 'resnet34', 'resnet50', 'resnext101_32x8d', 'resnext50_32x4d', 'shufflenet_v2_x0_5', 'shufflenet_v2_x1_0', 'shufflenet_v2_x1_5', 'shufflenet_v2_x2_0', 'squeezenet1_0', 'squeezenet1_1', 'vgg11', 'vgg11_bn', 'vgg13', 'vgg13_bn', 'vgg16', 'vgg16_bn', 'vgg19', 'vgg19_bn', 'wide_resnet101_2', 'wide_resnet50_2']Model alexnet LoadedAlexNet(  (features): Sequential(    (0): Conv2d(3, 64, kernel_size=(11, 11), stride=(4, 4), padding=(2, 2))    (1): ReLU(inplace=True)    (2): MaxPool2d(kernel_size=3, stride=2, padding=0, dilation=1, ceil_mode=False)    (3): Conv2d(64, 192, kernel_size=(5, 5), stride=(1, 1), padding=(2, 2))    (4): ReLU(inplace=True)    (5): MaxPool2d(kernel_size=3, stride=2, padding=0, dilation=1, ceil_mode=False)    (6): Conv2d(192, 384, kernel_size=(3, 3), stride=(1, 1), padding=(1, 1))    (7): ReLU(inplace=True)    (8): Conv2d(384, 256, kernel_size=(3, 3), stride=(1, 1), padding=(1, 1))    (9): ReLU(inplace=True)    (10): Conv2d(256, 256, kernel_size=(3, 3), stride=(1, 1), padding=(1, 1))    (11): ReLU(inplace=True)    (12): MaxPool2d(kernel_size=3, stride=2, padding=0, dilation=1, ceil_mode=False)  )  (avgpool): AdaptiveAvgPool2d(output_size=(6, 6))  (classifier): Sequential(    (0): Dropout(p=0.5, inplace=False)    (1): Linear(in_features=9216, out_features=4096, bias=True)    (2): ReLU(inplace=True)    (3): Dropout(p=0.5, inplace=False)    (4): Linear(in_features=4096, out_features=4096, bias=True)    (5): ReLU(inplace=True)    (6): Linear(in_features=4096, out_features=10, bias=True)  ))Model alexnet ReshapedSending model to GPULearning Rate: 0.001, Weight Decay: 0, Momentum: 0Defined <class 'torch.optim.sgd.SGD'> OptimizerStarting Training at 1582571125.0846467Traceback (most recent call last):  File "./main.py", line 395, in <module>    test(model_names[model_archi])  File "./main.py", line 225, in test    outputs = m
…
   car   cat['alexnet', 'densenet121', 'densenet161', 'densenet169', 'densenet201', 'googlenet', 'inception_v3', 'mnasnet0_5', 'mnasnet0_75', 'mnasnet1_0', 'mnasnet1_3', 'mobilenet_v2', 'resnet101', 'resnet152', 'resnet18', 'resnet34', 'resnet50', 'resnext101_32x8d', 'resnext50_32x4d', 'shufflenet_v2_x0_5', 'shufflenet_v2_x1_0', 'shufflenet_v2_x1_5', 'shufflenet_v2_x2_0', 'squeezenet1_0', 'squeezenet1_1', 'vgg11', 'vgg11_bn', 'vgg13', 'vgg13_bn', 'vgg16', 'vgg16_bn', 'vgg19', 'vgg19_bn', 'wide_resnet101_2', 'wide_resnet50_2']Model googlenet LoadedGoogLeNet(  (conv1): BasicConv2d(    (conv): Conv2d(3, 64, kernel_size=(7, 7), stride=(2, 2), padding=(3, 3), bias=False)    (bn): BatchNorm2d(64, eps=0.001, momentum=0.1, affine=True, track_running_stats=True)  )  (maxpool1): MaxPool2d(kernel_size=3, stride=2, padding=0, dilation=1, ceil_mode=True)  (conv2): BasicConv2d(    (conv): Conv2d(64, 64, kernel_size=(1, 1), stride=(1, 1), bias=False)    (bn): BatchNorm2d(64, eps=0.001, momentum=0.1, affine=True, track_running_stats=True)  )  (conv3): BasicConv2d(    (conv): Conv2d(64, 192, kernel_size=(3, 3), stride=(1, 1), padding=(1, 1), bias=False)    (bn): BatchNorm2d(192, eps=0.001, momentum=0.1, affine=True, track_running_stats=True)  )  (maxpool2): MaxPool2d(kernel_size=3, stride=2, padding=0, dilation=1, ceil_mode=True)  (inception3a): Inception(    (branch1): BasicConv2d(      (conv): Conv2d(192, 64, kernel_size=(1, 1), stride=(1, 1), bias=False)      (bn): BatchNorm2d(64, eps=0.001, momentum=0.1, affine=True, track_running_stats=True)    )    (branch2): Sequential(      (0): BasicConv2d(        (conv): Conv2d(192, 96, kernel_size=(1, 1), stride=(1, 1), bias=False)        (bn): BatchNorm2d(96, eps=0.001, momentum=0.1, affine=True, track_running_stats=True)      )      (1): BasicConv2d(        (conv): Conv2d(96, 128, kernel_size=(3, 3), stride=(1, 1), padding=(1, 1), bias=False)        (bn): BatchNorm2d(128, eps=0.001, momentum=0.1, affine=True, track_running_stats=True)      )    )    (branch3): Sequential(      (0): BasicConv2d(        (conv): Conv2d(192, 16, kernel_size=(1, 1), stride=(1, 1), bias=False)        (bn): BatchNorm2d(16, eps=0.001, momentum=0.1, affine=True, track_running_stats=True)      )      (1): BasicConv2d(        (conv): Conv2d(16, 32, kernel_size=(3, 3), stride=(1, 1), padding=(1, 1), bias=False)        (bn): BatchNorm2d(32, eps=0.001, momentum=0.1, affine=True, track_running_stats=True)      )    )    (branch4): Sequential(      (0): MaxPool2d(kernel_size=3, stride=1, padding=1, dilation=1, ceil_mode=True)      (1): BasicConv2d(        (conv): Conv2d(192, 32, kernel_size=(1, 1), stride=(1, 1), bias=False)        (bn): BatchNorm2d(32, eps=0.001, momentum=0.1, affine=True, track_running_stats=True)      )    )  )  (inception3b): Inception(    (branch1): BasicConv2d(      (conv): Conv2d(256, 128, kernel_size=(1, 1), stride=(1, 1), bias=False)      (bn): BatchNorm2d(128, eps=0.001, momentum=0.1, affine=True, track_running_stats=True)    )    (branch2): Sequential(      (0): BasicConv2d(        (conv): Conv2d(256, 128, kernel_size=(1, 1), stride=(1, 1), bias=False)        (bn): BatchNorm2d(128, eps=0.001, momentum=0.1, affine=True, track_running_stats=True)      )      (1): BasicConv2d(        (conv): Conv2d(128, 192, kernel_size=(3, 3), stride=(1, 1), padding=(1, 1), bias=False)        (bn): BatchNorm2d(192, eps=0.001, momentum=0.1, affine=True, track_running_stats=True)      )    )    (branch3): Sequential(      (0): BasicConv2d(        (conv): Conv2d(256, 32, kernel_size=(1, 1), stride=(1, 1), bias=False)        (bn): BatchNorm2d(32, eps=0.001, momentum=0.1, affine=True, track_running_stats=True)      )      (1): BasicConv2d(        (conv): Conv2d(32, 96, kernel_size=(3, 3), stride=(1, 1), padding=(1, 1), bias=False)        (bn): BatchNorm2d(96, eps=0.001, momentum=0.1, affine=True, track_running_stats=True)      )    )    (branch4): Sequential(      (0): MaxPool2d(kernel_size=3, stride=1, padding=1, dilation=1, ceil_mode=True)      (1): BasicConv2d(        (conv): Conv2d(256, 64, kernel_size=(1, 1), stride=(1, 1), bias=False)        (bn): BatchNorm2d(64, eps=0.001, momentum=0.1, affine=True, track_running_stats=True)      )    )  )  (maxpool3): MaxPool2d(kernel_size=3, stride=2, padding=0, dilation=1, ceil_mode=True)  (inception4a): Inception(    (branch1): BasicConv2d(      (conv): Conv2d(480, 192, kernel_size=(1, 1), stride=(1, 1), bias=False)      (bn): BatchNorm2d(192, eps=0.001, momentum=0.1, affine=True, track_running_stats=True)    )    (branch2): Sequential(      (0): BasicConv2d(        (conv): Conv2d(480, 96, kernel_size=(1, 1), stride=(1, 1), bias=False)        (bn): BatchNorm2d(96, eps=0.001, momentum=0.1, affine=True, track_running_stats=True)      )      (1): BasicConv2d(        (conv): Conv2d(96, 208, kernel_size=(3, 3), stride=(1, 1), padding=(1, 1), bias=False)        (bn): BatchNorm2d(208, eps=0.001, momentum=0.1, affine=True, track_running_stats=True)      )    )    (branch3): Sequential(      (0): BasicConv2d(        (conv): Conv2d(480, 16, kernel_size=(1, 1), stride=(1, 1), bias=False)        (bn): BatchNorm2d(16, eps=0.001, momentum=0.1, affine=True, track_running_stats=True)      )      (1): BasicConv2d(        (conv): Conv2d(16, 48, kernel_size=(3, 3), stride=(1, 1), padding=(1, 1), bias=False)        (bn): BatchNorm2d(48, eps=0.001, momentum=0.1, affine=True, track_running_stats=True)      )    )    (branch4): Sequential(      (0): MaxPool2d(kernel_size=3, stride=1, padding=1, dilation=1, ceil_mode=True)      (1): BasicConv2d(        (conv): Conv2d(480, 64, kernel_size=(1, 1), stride=(1, 1), bias=False)        (bn): BatchNorm2d(64, eps=0.001, momentum=0.1, affine=True, track_running_stats=True)      )    )  )  (inception4b): Inception(    (branch1): BasicConv2d(      (conv): Conv2d(512, 160, kernel_size=(1, 1), stride=(1, 1), bias=False)      (bn): BatchNorm2d(160, eps=0.001, momentum=0.1, affine=True, track_running_stats=True)    )    (branch2): Sequential(      (0): BasicConv2d(        (conv): Conv2d(512, 112, kernel_size=(1, 1), stride=(1, 1), bias=False)        (bn): BatchNorm2d(112, eps=0.001, momentum=0.1, affine=True, track_running_stats=True)      )      (1): BasicConv2d(        (conv): Conv2d(112, 224, kernel_size=(3, 3), stride=(1, 1), padding=(1, 1), bias=False)        (bn): BatchNorm2d(224, eps=0.001, momentum=0.1, affine=True, track_running_stats=True)      )    )    (branch3): Sequential(      (0): BasicConv2d(        (conv): Conv2d(512, 24, kernel_size=(1, 1), stride=(1, 1), bias=False)        (bn): BatchNorm2d(24, eps=0.001, momentum=0.1, affine=True, track_running_stats=True)      )      (1): BasicConv2d(        (conv): Conv2d(24, 64, kernel_size=(3, 3), stride=(1, 1), padding=(1, 1), bias=False)        (bn): BatchNorm2d(64, eps=0.001, momentum=0.1, affine=True, track_running_stats=True)      )    )    (branch4): Sequential(      (0): MaxPool2d(kernel_size=3, stride=1, padding=1, dilation=1, ceil_mode=True)      (1): BasicConv2d(        (conv): Conv2d(512, 64, kernel_size=(1, 1), stride=(1, 1), bias=False)        (bn): BatchNorm2d(64, eps=0.001, momentum=0.1, affine=True, track_running_stats=True)      )    )  )  (inception4c): Inception(    (branch1): BasicConv2d(      (conv): Conv2d(512, 128, kernel_size=(1, 1), stride=(1, 1), bias=False)      (bn): BatchNorm2d(128, eps=0.001, momentum=0.1, affine=True, track_running_stats=True)    )    (branch2): Sequential(      (0): BasicConv2d(        (conv): Conv2d(512, 128, kernel_size=(1, 1), stride=(1, 1), bias=False)        (bn): BatchNorm2d(128, eps=0.001, momentum=0.1, affine=True, track_running_stats=True)      )      (1): BasicConv2d(        (conv): Conv2d(128, 256, kernel_size=(3, 3), stride=(1, 1), padding=(1, 1), bias=False)        (bn): BatchNorm2d(256, eps=0.001, momentum=0.1, affine=True, track_running_stats=True)      )    )    (branch3): Sequential(      (0): BasicConv2d(        (conv): Conv2d(512, 24, kernel_size=(1, 1), stride=(1, 1), bias=False)        (bn): BatchNorm2d(24, eps=0.001, momentum=0.1, affine=True, track_running_stats=True)      )      (1): BasicConv2d(        (conv): Conv2d(24, 64, kernel_size=(3, 3), stride=(1, 1), padding=(1, 1), bias=False)        (bn): BatchNorm2d(64, eps=0.001, momentum=0.1, affine=True, track_running_stats=True)      )    )    (branch4): Sequential(      (0): MaxPool2d(kernel_size=3, stride=1, padding=1, dilation=1, ceil_mode=True)      (1): BasicConv2d(        (conv): Conv2d(512, 64, kernel_size=(1, 1), stride=(1, 1), bias=False)        (bn): BatchNorm2d(64, eps=0.001, momentum=0.1, affine=True, track_running_stats=True)      )    )  )  (inception4d): Inception(    (branch1): BasicConv2d(      (conv): Conv2d(512, 112, kernel_size=(1, 1), stride=(1, 1), bias=False)      (bn): BatchNorm2d(112, eps=0.001, momentum=0.1, affine=True, track_running_stats=True)    )    (branch2): Sequential(      (0): BasicConv2d(        (conv): Conv2d(512, 144, kernel_size=(1, 1), stride=(1, 1), bias=False)        (bn): BatchNorm2d(144, eps=0.001, momentum=0.1, affine=True, track_running_stats=True)      )      (1): BasicConv2d(        (conv): Conv2d(144, 288, kernel_size=(3, 3), stride=(1, 1), padding=(1, 1), bias=False)        (bn): BatchNorm2d(288, eps=0.001, momentum=0.1, affine=True, track_running_stats=True)      )    )    (branch3): Sequential(      (0): BasicConv2d(        (conv): Conv2d(512, 32, kernel_size=(1, 1), stride=(1, 1), bias=False)        (bn): BatchNorm2d(32, eps=0.001, momentum=0.1, affine=True, track_running_stats=True)      )      (1): BasicConv2d(        (conv): Conv2d(32, 64, kernel_size=(3, 3), stride=(1, 1), padding=(1, 1), bias=False)        (bn): BatchNorm2d(64, eps=0.001, momentum=0.1, affine=True, track_running_stats=True)      )    )    (branch4): Sequential(      (0): MaxPool2d(kernel_size=3, stride=1, padding=1, dilation=1, ceil_mode=True)      (1): BasicConv2d(        (conv): Conv2d(512, 64, kernel_size=(1, 1), stride=(1, 1), bias=False)        (bn): BatchNorm2d(64, eps=0.001, momentum=0.1, affine=True, track_running_stats=True)      )    )  )  (inception4e): Inception(    (branch1): BasicConv2d(      (conv): Conv2d(528, 256, kernel_size=(1, 1), stride=(1, 1), bias=False)      (bn): BatchNorm2d(256, eps=0.001, momentum=0.1, affine=True, track_running_stats=True)    )    (branch2): Sequential(      (0): BasicConv2d(        (conv): Conv2d(528, 160, kernel_size=(1, 1), stride=(1, 1), bias=False)        (bn): BatchNorm2d(160, eps=0.001, momentum=0.1, affine=True, track_running_stats=True)      )      (1): BasicConv2d(        (conv): Conv2d(160, 320, kernel_size=(3, 3), stride=(1, 1), padding=(1, 1), bias=False)        (bn): BatchNorm2d(320, eps=0.001, momentum=0.1, affine=True, track_running_stats=True)      )    )    (branch3): Sequential(      (0): BasicConv2d(        (conv): Conv2d(528, 32, kernel_size=(1, 1), stride=(1, 1), bias=False)        (bn): BatchNorm2d(32, eps=0.001, momentum=0.1, affine=True, track_running_stats=True)      )      (1): BasicConv2d(        (conv): Conv2d(32, 128, kernel_size=(3, 3), stride=(1, 1), padding=(1, 1), bias=False)        (bn): BatchNorm2d(128, eps=0.001, momentum=0.1, affine=True, track_running_stats=True)      )    )    (branch4): Sequential(      (0): MaxPool2d(kernel_size=3, stride=1, padding=1, dilation=1, ceil_mode=True)      (1): BasicConv2d(        (conv): Conv2d(528, 128, kernel_size=(1, 1), stride=(1, 1), bias=False)        (bn): BatchNorm2d(128, eps=0.001, momentum=0.1, affine=True, track_running_stats=True)      )    )  )  (maxpool4): MaxPool2d(kernel_size=2, stride=2, padding=0, dilation=1, ceil_mode=True)  (inception5a): Inception(    (branch1): BasicConv2d(      (conv): Conv2d(832, 256, kernel_size=(1, 1), stride=(1, 1), bias=False)      (bn): BatchNorm2d(256, eps=0.001, momentum=0.1, affine=True, track_running_stats=True)    )    (branch2): Sequential(      (0): BasicConv2d(        (conv): Conv2d(832, 160, kernel_size=(1, 1), stride=(1, 1), bias=False)        (bn): BatchNorm2d(160, eps=0.001, momentum=0.1, affine=True, track_running_stats=True)      )      (1): BasicConv2d(        (conv): Conv2d(160, 320, kernel_size=(3, 3), stride=(1, 1), padding=(1, 1), bias=False)        (bn): BatchNorm2d(320, eps=0.001, momentum=0.1, affine=True, track_running_stats=True)      )    )    (branch3): Sequential(      (0): BasicConv2d(        (conv): Conv2d(832, 32, kernel_size=(1, 1), stride=(1, 1), bias=False)        (bn): BatchNorm2d(32, eps=0.001, momentum=0.1, affine=True, track_running_stats=True)      )      (1): BasicConv2d(        (conv): Conv2d(32, 128, kernel_size=(3, 3), stride=(1, 1), padding=(1, 1), bias=False)        (bn): BatchNorm2d(128, eps=0.001, momentum=0.1, affine=True, track_running_stats=True)      )    )    (branch4): Sequential(      (0): MaxPool2d(kernel_size=3, stride=1, padding=1, dilation=1, ceil_mode=True)      (1): BasicConv2d(        (conv): Conv2d(832, 128, kernel_size=(1, 1), stride=(1, 1), bias=False)        (bn): BatchNorm2d(128, eps=0.001, momentum=0.1, affine=True, track_running_stats=True)      )    )  )  (inception5b): Inception(    (branch1): BasicConv2d(      (conv): Conv2d(832, 384, kernel_size=(1, 1), stride=(1, 1), bias=False)      (bn): BatchNorm2d(384, eps=0.001, momentum=0.1, affine=True, track_running_stats=True)    )    (branch2): Sequential(      (0): BasicConv2d(        (conv): Conv2d(832, 192, kernel_size=(1, 1), stride=(1, 1), bias=False)        (bn): BatchNorm2d(192, eps=0.001, momentum=0.1, affine=True, track_running_stats=True)      )      (1): BasicConv2d(        (conv): Conv2d(192, 384, kernel_size=(3, 3), stride=(1, 1), padding=(1, 1), bias=False)        (bn): BatchNorm2d(384, eps=0.001, momentum=0.1, affine=True, track_running_stats=True)      )    )    (branch3): Sequential(      (0): BasicConv2d(        (conv): Conv2d(832, 48, kernel_size=(1, 1), stride=(1, 1), bias=False)        (bn): BatchNorm2d(48, eps=0.001, momentum=0.1, affine=True, track_running_stats=True)      )      (1): BasicConv2d(        (conv): Conv2d(48, 128, kernel_size=(3, 3), stride=(1, 1), padding=(1, 1), bias=False)        (bn): BatchNorm2d(128, eps=0.001, momentum=0.1, affine=True, track_running_stats=True)      )    )    (branch4): Sequential(      (0): MaxPool2d(kernel_size=3, stride=1, padding=1, dilation=1, ceil_mode=True)      (1): BasicConv2d(        (conv): Conv2d(832, 128, kernel_size=(1, 1), stride=(1, 1), bias=False)        (bn): BatchNorm2d(128, eps=0.001, momentum=0.1, affine=True, track_running_stats=True)      )    )  )  (avgpool): AdaptiveAvgPool2d(output_size=(1, 1))  (dropout): Dropout(p=0.2, inplace=False)  (fc): Linear(in_features=1024, out_features=1000, bias=True)  (classifier): Linear(in_features=1024, out_features=10, bias=True))Model googlenet ReshapedSending model to GPULearning Rate: 0.001, Weight Decay: 0, Momentum: 0Defined <class 'torch.optim.sgd.SGD'> OptimizerStarting Training at 1582571134.5346832[1,   500] loss: 4.43783716.311566829681396[1,  1000] loss: 2.68374030.66101837158203[1,  1500] loss: 2.40776145.22016620635986[1,  2000] loss: 2.30227059.34538
…
fiedcuda:012500truck truck  deer  ship['alexnet', 'densenet121', 'densenet161', 'densenet169', 'densenet201', 'googlenet', 'inception_v3', 'mnasnet0_5', 'mnasnet0_75', 'mnasnet1_0', 'mnasnet1_3', 'mobilenet_v2', 'resnet101', 'resnet152', 'resnet18', 'resnet34', 'resnet50', 'resnext101_32x8d', 'resnext50_32x4d', 'shufflenet_v2_x0_5', 'shufflenet_v2_x1_0', 'shufflenet_v2_x1_5', 'shufflenet_v2_x2_0', 'squeezenet1_0', 'squeezenet1_1', 'vgg11', 'vgg11_bn', 'vgg13', 'vgg13_bn', 'vgg16', 'vgg16_bn', 'vgg19', 'vgg19_bn', 'wide_resnet101_2', 'wide_resnet50_2']Model resnet34 LoadedResNet(  (conv1): Conv2d(3, 64, kernel_size=(7, 7), stride=(2, 2), padding=(3, 3), bias=False)  (bn1): BatchNorm2d(64, eps=1e-05, momentum=0.1, affine=True, track_running_stats=True)  (relu): ReLU(inplace=True)  (maxpool): MaxPool2d(kernel_size=3, stride=2, padding=1, dilation=1, ceil_mode=False)  (layer1): Sequential(    (0): BasicBlock(      (conv1): Conv2d(64, 64, kernel_size=(3, 3), stride=(1, 1), padding=(1, 1), bias=False)      (bn1): BatchNorm2d(64, eps=1e-05, momentum=0.1, affine=True, track_running_stats=True)      (relu): ReLU(inplace=True)      (conv2): Conv2d(64, 64, kernel_size=(3, 3), stride=(1, 1), padding=(1, 1), bias=False)      (bn2): BatchNorm2d(64, eps=1e-05, momentum=0.1, affine=True, track_running_stats=True)    )    (1): BasicBlock(      (conv1): Conv2d(64, 64, kernel_size=(3, 3), stride=(1, 1), padding=(1, 1), bias=False)      (bn1): BatchNorm2d(64, eps=1e-05, momentum=0.1, affine=True, track_running_stats=True)      (relu): ReLU(inplace=True)      (conv2): Conv2d(64, 64, kernel_size=(3, 3), stride=(1, 1), padding=(1, 1), bias=False)      (bn2): BatchNorm2d(64, eps=1e-05, momentum=0.1, affine=True, track_running_stats=True)    )    (2): BasicBlock(      (conv1): Conv2d(64, 64, kernel_size=(3, 3), stride=(1, 1), padding=(1, 1), bias=False)      (bn1): BatchNorm2d(64, eps=1e-05, momentum=0.1, affine=True, track_running_stats=True)      (relu): ReLU(inplace=True)      (conv2): Conv2d(64, 64, kernel_size=(3, 3), stride=(1, 1), padding=(1, 1), bias=False)      (bn2): BatchNorm2d(64, eps=1e-05, momentum=0.1, affine=True, track_running_stats=True)    )  )  (layer2): Sequential(    (0): BasicBlock(      (conv1): Conv2d(64, 128, kernel_size=(3, 3), stride=(2, 2), padding=(1, 1), bias=False)      (bn1): BatchNorm2d(128, eps=1e-05, momentum=0.1, affine=True, track_running_stats=True)      (relu): ReLU(inplace=True)      (conv2): Conv2d(128, 128, kernel_size=(3, 3), stride=(1, 1), padding=(1, 1), bias=False)      (bn2): BatchNorm2d(128, eps=1e-05, momentum=0.1, affine=True, track_running_stats=True)      (downsample): Sequential(        (0): Conv2d(64, 128, kernel_size=(1, 1), stride=(2, 2), bias=False)        (1): BatchNorm2d(128, eps=1e-05, momentum=0.1, affine=True, track_running_stats=True)      )    )    (1): BasicBlock(      (conv1): Conv2d(128, 128, kernel_size=(3, 3), stride=(1, 1), padding=(1, 1), bias=False)      (bn1): BatchNorm2d(128, eps=1e-05, momentum=0.1, affine=True, track_running_stats=True)      (relu): ReLU(inplace=True)      (conv2): Conv2d(128, 128, kernel_size=(3, 3), stride=(1, 1), padding=(1, 1), bias=False)      (bn2): BatchNorm2d(128, eps=1e-05, momentum=0.1, affine=True, track_running_stats=True)    )    (2): BasicBlock(      (conv1): Conv2d(128, 128, kernel_size=(3, 3), stride=(1, 1), padding=(1, 1), bias=False)      (bn1): BatchNorm2d(128, eps=1e-05, momentum=0.1, affine=True, track_running_stats=True)      (relu): ReLU(inplace=True)      (conv2): Conv2d(128, 128, kernel_size=(3, 3), stride=(1, 1), padding=(1, 1), bias=False)      (bn2): BatchNorm2d(128, eps=1e-05, momentum=0.1, affine=True, track_running_stats=True)    )    (3): BasicBlock(      (conv1): Conv2d(128, 128, kernel_size=(3, 3), stride=(1, 1), padding=(1, 1), bias=False)      (bn1): BatchNorm2d(128, eps=1e-05, momentum=0.1, affine=True, track_running_stats=True)      (relu): ReLU(inplace=True)      (conv2): Conv2d(128, 128, kernel_size=(3, 3), stride=(1, 1), padding=(1, 1), bias=False)      (bn2): BatchNorm2d(128, eps=1e-05, momentum=0.1, affine=True, track_running_stats=True)    )  )  (layer3): Sequential(    (0): BasicBlock(      (conv1): Conv2d(128, 256, kernel_size=(3, 3), stride=(2, 2), padding=(1, 1), bias=False)      (bn1): BatchNorm2d(256, eps=1e-05, momentum=0.1, affine=True, track_running_stats=True)      (relu): ReLU(inplace=True)      (conv2): Conv2d(256, 256, kernel_size=(3, 3), stride=(1, 1), padding=(1, 1), bias=False)      (bn2): BatchNorm2d(256, eps=1e-05, momentum=0.1, affine=True, track_running_stats=True)      (downsample): Sequential(        (0): Conv2d(128, 256, kernel_size=(1, 1), stride=(2, 2), bias=False)        (1): BatchNorm2d(256, eps=1e-05, momentum=0.1, affine=True, track_running_stats=True)      )    )    (1): BasicBlock(      (conv1): Conv2d(256, 256, kernel_size=(3, 3), stride=(1, 1), padding=(1, 1), bias=False)      (bn1): BatchNorm2d(256, eps=1e-05, momentum=0.1, affine=True, track_running_stats=True)      (relu): ReLU(inplace=True)      (conv2): Conv2d(256, 256, kernel_size=(3, 3), stride=(1, 1), padding=(1, 1), bias=False)      (bn2): BatchNorm2d(256, eps=1e-05, momentum=0.1, affine=True, track_running_stats=True)    )    (2): BasicBlock(      (conv1): Conv2d(256, 256, kernel_size=(3, 3), stride=(1, 1), padding=(1, 1), bias=False)      (bn1): BatchNorm2d(256, eps=1e-05, momentum=0.1, affine=True, track_running_stats=True)      (relu): ReLU(inplace=True)      (conv2): Conv2d(256, 256, kernel_size=(3, 3), stride=(1, 1), padding=(1, 1), bias=False)      (bn2): BatchNorm2d(256, eps=1e-05, momentum=0.1, affine=True, track_running_stats=True)    )    (3): BasicBlock(      (conv1): Conv2d(256, 256, kernel_size=(3, 3), stride=(1, 1), padding=(1, 1), bias=False)      (bn1): BatchNorm2d(256, eps=1e-05, momentum=0.1, affine=True, track_running_stats=True)      (relu): ReLU(inplace=True)      (conv2): Conv2d(256, 256, kernel_size=(3, 3), stride=(1, 1), padding=(1, 1), bias=False)      (bn2): BatchNorm2d(256, eps=1e-05, momentum=0.1, affine=True, track_running_stats=True)    )    (4): BasicBlock(      (conv1): Conv2d(256, 256, kernel_size=(3, 3), stride=(1, 1), padding=(1, 1), bias=False)      (bn1): BatchNorm2d(256, eps=1e-05, momentum=0.1, affine=True, track_running_stats=True)      (relu): ReLU(inplace=True)      (conv2): Conv2d(256, 256, kernel_size=(3, 3), stride=(1, 1), padding=(1, 1), bias=False)      (bn2): BatchNorm2d(256, eps=1e-05, momentum=0.1, affine=True, track_running_stats=True)    )    (5): BasicBlock(      (conv1): Conv2d(256, 256, kernel_size=(3, 3), stride=(1, 1), padding=(1, 1), bias=False)      (bn1): BatchNorm2d(256, eps=1e-05, momentum=0.1, affine=True, track_running_stats=True)      (relu): ReLU(inplace=True)      (conv2): Conv2d(256, 256, kernel_size=(3, 3), stride=(1, 1), padding=(1, 1), bias=False)      (bn2): BatchNorm2d(256, eps=1e-05, momentum=0.1, affine=True, track_running_stats=True)    )  )  (layer4): Sequential(    (0): BasicBlock(      (conv1): Conv2d(256, 512, kernel_size=(3, 3), stride=(2, 2), padding=(1, 1), bias=False)      (bn1): BatchNorm2d(512, eps=1e-05, momentum=0.1, affine=True, track_running_stats=True)      (relu): ReLU(inplace=True)      (conv2): Conv2d(512, 512, kernel_size=(3, 3), stride=(1, 1), padding=(1, 1), bias=False)      (bn2): BatchNorm2d(512, eps=1e-05, momentum=0.1, affine=True, track_running_stats=True)      (downsample): Sequential(        (0): Conv2d(256, 512, kernel_size=(1, 1), stride=(2, 2), bias=False)        (1): BatchNorm2d(512, eps=1e-05, momentum=0.1, affine=True, track_running_stats=True)      )    )    (1): BasicBlock(      (conv1): Conv2d(512, 512, kernel_size=(3, 3), stride=(1, 1), padding=(1, 1), bias=False)      (bn1): BatchNorm2d(512, eps=1e-05, momentum=0.1, affine=True, track_running_stats=True)      (relu): ReLU(inplace=True)      (conv2): Conv2d(512, 512, kernel_size=(3, 3), stride=(1, 1), padding=(1, 1), bias=False)      (bn2): BatchNorm2d(512, eps=1e-05, momentum=0.1, affine=True, track_running_stats=True)    )    (2): BasicBlock(      (conv1): Conv2d(512, 512, kernel_size=(3, 3), stride=(1, 1), padding=(1, 1), bias=False)      (bn1): BatchNorm2d(512, eps=1e-05, momentum=0.1, affine=True, track_running_stats=True)      (relu): ReLU(inplace=True)      (conv2): Conv2d(512, 512, kernel_size=(3, 3), stride=(1, 1), padding=(1, 1), bias=False)      (bn2): BatchNorm2d(512, eps=1e-05, momentum=0.1, affine=True, track_running_stats=True)    )  )  (avgpool): AdaptiveAvgPool2d(output_size=(1, 1))  (fc): Linear(in_features=512, out_features=10, bias=True))Model resnet34 ReshapedSending model to GPULearning Rate: 0.001, Weight Decay: 0, Momentum: 0Defined <class 'torch.optim.sgd.SGD'> OptimizerStarting Training at 1582572974.6108327[1,   500] loss: 2.2053958.852469205856323[1,  1000] loss: 2.05755217.64035439491272[1,  1500] loss: 2.00788326.513325929641724[1,  2000] loss: 1.91068035.3147137
…
 frog  deer   dog   car['alexnet', 'densenet121', 'densenet161', 'densenet169', 'densenet201', 'googlenet', 'inception_v3', 'mnasnet0_5', 'mnasnet0_75', 'mnasnet1_0', 'mnasnet1_3', 'mobilenet_v2', 'resnet101', 'resnet152', 'resnet18', 'resnet34', 'resnet50', 'resnext101_32x8d', 'resnext50_32x4d', 'shufflenet_v2_x0_5', 'shufflenet_v2_x1_0', 'shufflenet_v2_x1_5', 'shufflenet_v2_x2_0', 'squeezenet1_0', 'squeezenet1_1', 'vgg11', 'vgg11_bn', 'vgg13', 'vgg13_bn', 'vgg16', 'vgg16_bn', 'vgg19', 'vgg19_bn', 'wide_resnet101_2', 'wide_resnet50_2']Model vgg11 LoadedVGG(  (features): Sequential(    (0): Conv2d(3, 64, kernel_size=(3, 3), stride=(1, 1), padding=(1, 1))    (1): ReLU(inplace=True)    (2): MaxPool2d(kernel_size=2, stride=2, padding=0, dilation=1, ceil_mode=False)    (3): Conv2d(64, 128, kernel_size=(3, 3), stride=(1, 1), padding=(1, 1))    (4): ReLU(inplace=True)    (5): MaxPool2d(kernel_size=2, stride=2, padding=0, dilation=1, ceil_mode=False)    (6): Conv2d(128, 256, kernel_size=(3, 3), stride=(1, 1), padding=(1, 1))    (7): ReLU(inplace=True)    (8): Conv2d(256, 256, kernel_size=(3, 3), stride=(1, 1), padding=(1, 1))    (9): ReLU(inplace=True)    (10): MaxPool2d(kernel_size=2, stride=2, padding=0, dilation=1, ceil_mode=False)    (11): Conv2d(256, 512, kernel_size=(3, 3), stride=(1, 1), padding=(1, 1))    (12): ReLU(inplace=True)    (13): Conv2d(512, 512, kernel_size=(3, 3), stride=(1, 1), padding=(1, 1))    (14): ReLU(inplace=True)    (15): MaxPool2d(kernel_size=2, stride=2, padding=0, dilation=1, ceil_mode=False)    (16): Conv2d(512, 512, kernel_size=(3, 3), stride=(1, 1), padding=(1, 1))    (17): ReLU(inplace=True)    (18): Conv2d(512, 512, kernel_size=(3, 3), stride=(1, 1), padding=(1, 1))    (19): ReLU(inplace=True)    (20): MaxPool2d(kernel_size=2, stride=2, padding=0, dilation=1, ceil_mode=False)  )  (avgpool): AdaptiveAvgPool2d(output_size=(7, 7))  (classifier): Sequential(    (0): Linear(in_features=25088, out_features=4096, bias=True)    (1): ReLU(inplace=True)    (2): Dropout(p=0.5, inplace=False)    (3): Linear(in_features=4096, out_features=4096, bias=True)    (4): ReLU(inplace=True)    (5): Dropout(p=0.5, inplace=False)    (6): Linear(in_features=4096, out_features=10, bias=True)  ))Model vgg11 ReshapedSending model to GPULearning Rate: 0.001, Weight Decay: 0, Momentum: 0Defined <class 'torch.optim.sgd.SGD'> OptimizerStarting Training at 1582574097.6067312[1,   500] loss: 1.7118465.067424535751343[1,  1000] loss: 1.33272110.025137662887573[1,  1500] loss: 1.09116414.969281673431396[1,  2000] loss: 1.05437019.9289
…
er truck  ship   car['alexnet', 'densenet121', 'densenet161', 'densenet169', 'densenet201', 'googlenet', 'inception_v3', 'mnasnet0_5', 'mnasnet0_75', 'mnasnet1_0', 'mnasnet1_3', 'mobilenet_v2', 'resnet101', 'resnet152', 'resnet18', 'resnet34', 'resnet50', 'resnext101_32x8d', 'resnext50_32x4d', 'shufflenet_v2_x0_5', 'shufflenet_v2_x1_0', 'shufflenet_v2_x1_5', 'shufflenet_v2_x2_0', 'squeezenet1_0', 'squeezenet1_1', 'vgg11', 'vgg11_bn', 'vgg13', 'vgg13_bn', 'vgg16', 'vgg16_bn', 'vgg19', 'vgg19_bn', 'wide_resnet101_2', 'wide_resnet50_2']Model vgg11_bn LoadedVGG(  (features): Sequential(    (0): Conv2d(3, 64, kernel_size=(3, 3), stride=(1, 1), padding=(1, 1))    (1): BatchNorm2d(64, eps=1e-05, momentum=0.1, affine=True, track_running_stats=True)    (2): ReLU(inplace=True)    (3): MaxPool2d(kernel_size=2, stride=2, padding=0, dilation=1, ceil_mode=False)    (4): Conv2d(64, 128, kernel_size=(3, 3), stride=(1, 1), padding=(1, 1))    (5): BatchNorm2d(128, eps=1e-05, momentum=0.1, affine=True, track_running_stats=True)    (6): ReLU(inplace=True)    (7): MaxPool2d(kernel_size=2, stride=2, padding=0, dilation=1, ceil_mode=False)    (8): Conv2d(128, 256, kernel_size=(3, 3), stride=(1, 1), padding=(1, 1))    (9): BatchNorm2d(256, eps=1e-05, momentum=0.1, affine=True, track_running_stats=True)    (10): ReLU(inplace=True)    (11): Conv2d(256, 256, kernel_size=(3, 3), stride=(1, 1), padding=(1, 1))    (12): BatchNorm2d(256, eps=1e-05, momentum=0.1, affine=True, track_running_stats=True)    (13): ReLU(inplace=True)    (14): MaxPool2d(kernel_size=2, stride=2, padding=0, dilation=1, ceil_mode=False)    (15): Conv2d(256, 512, kernel_size=(3, 3), stride=(1, 1), padding=(1, 1))    (16): BatchNorm2d(512, eps=1e-05, momentum=0.1, affine=True, track_running_stats=True)    (17): ReLU(inplace=True)    (18): Conv2d(512, 512, kernel_size=(3, 3), stride=(1, 1), padding=(1, 1))    (19): BatchNorm2d(512, eps=1e-05, momentum=0.1, affine=True, track_running_stats=True)    (20): ReLU(inplace=True)    (21): MaxPool2d(kernel_size=2, stride=2, padding=0, dilation=1, ceil_mode=False)    (22): Conv2d(512, 512, kernel_size=(3, 3), stride=(1, 1), padding=(1, 1))    (23): BatchNorm2d(512, eps=1e-05, momentum=0.1, affine=True, track_running_stats=True)    (24): ReLU(inplace=True)    (25): Conv2d(512, 512, kernel_size=(3, 3), stride=(1, 1), padding=(1, 1))    (26): BatchNorm2d(512, eps=1e-05, momentum=0.1, affine=True, track_running_stats=True)    (27): ReLU(inplace=True)    (28): MaxPool2d(kernel_size=2, stride=2, padding=0, dilation=1, ceil_mode=False)  )  (avgpool): AdaptiveAvgPool2d(output_size=(7, 7))  (classifier): Sequential(    (0): Linear(in_features=25088, out_features=4096, bias=True)    (1): ReLU(inplace=True)    (2): Dropout(p=0.5, inplace=False)    (3): Linear(in_features=4096, out_features=4096, bias=True)    (4): ReLU(inplace=True)    (5): Dropout(p=0.5, inplace=False)    (6): Linear(in_features=4096, out_features=10, bias=True)  ))Model vgg11_bn ReshapedSending model to GPULearning Rate: 0.001, Weight Decay: 0, Momentum: 0Defined <class 'torch.optim.sgd.SGD'> OptimizerStarting Training at 1582574735.7558334[1,   500] loss: 2.0838445.507211446762085[1,  1000] loss: 1.70054010.924010515213013[1,  1500] loss: 1.47268316.40943717956543[1,  2000] loss: 1.42093721.79
…
 ship truck   dog truck['alexnet', 'densenet121', 'densenet161', 'densenet169', 'densenet201', 'googlenet', 'inception_v3', 'mnasnet0_5', 'mnasnet0_75', 'mnasnet1_0', 'mnasnet1_3', 'mobilenet_v2', 'resnet101', 'resnet152', 'resnet18', 'resnet34', 'resnet50', 'resnext101_32x8d', 'resnext50_32x4d', 'shufflenet_v2_x0_5', 'shufflenet_v2_x1_0', 'shufflenet_v2_x1_5', 'shufflenet_v2_x2_0', 'squeezenet1_0', 'squeezenet1_1', 'vgg11', 'vgg11_bn', 'vgg13', 'vgg13_bn', 'vgg16', 'vgg16_bn', 'vgg19', 'vgg19_bn', 'wide_resnet101_2', 'wide_resnet50_2']Model vgg19 LoadedVGG(  (features): Sequential(    (0): Conv2d(3, 64, kernel_size=(3, 3), stride=(1, 1), padding=(1, 1))    (1): ReLU(inplace=True)    (2): Conv2d(64, 64, kernel_size=(3, 3), stride=(1, 1), padding=(1, 1))    (3): ReLU(inplace=True)    (4): MaxPool2d(kernel_size=2, stride=2, padding=0, dilation=1, ceil_mode=False)    (5): Conv2d(64, 128, kernel_size=(3, 3), stride=(1, 1), padding=(1, 1))    (6): ReLU(inplace=True)    (7): Conv2d(128, 128, kernel_size=(3, 3), stride=(1, 1), padding=(1, 1))    (8): ReLU(inplace=True)    (9): MaxPool2d(kernel_size=2, stride=2, padding=0, dilation=1, ceil_mode=False)    (10): Conv2d(128, 256, kernel_size=(3, 3), stride=(1, 1), padding=(1, 1))    (11): ReLU(inplace=True)    (12): Conv2d(256, 256, kernel_size=(3, 3), stride=(1, 1), padding=(1, 1))    (13): ReLU(inplace=True)    (14): Conv2d(256, 256, kernel_size=(3, 3), stride=(1, 1), padding=(1, 1))    (15): ReLU(inplace=True)    (16): Conv2d(256, 256, kernel_size=(3, 3), stride=(1, 1), padding=(1, 1))    (17): ReLU(inplace=True)    (18): MaxPool2d(kernel_size=2, stride=2, padding=0, dilation=1, ceil_mode=False)    (19): Conv2d(256, 512, kernel_size=(3, 3), stride=(1, 1), padding=(1, 1))    (20): ReLU(inplace=True)    (21): Conv2d(512, 512, kernel_size=(3, 3), stride=(1, 1), padding=(1, 1))    (22): ReLU(inplace=True)    (23): Conv2d(512, 512, kernel_size=(3, 3), stride=(1, 1), padding=(1, 1))    (24): ReLU(inplace=True)    (25): Conv2d(512, 512, kernel_size=(3, 3), stride=(1, 1), padding=(1, 1))    (26): ReLU(inplace=True)    (27): MaxPool2d(kernel_size=2, stride=2, padding=0, dilation=1, ceil_mode=False)    (28): Conv2d(512, 512, kernel_size=(3, 3), stride=(1, 1), padding=(1, 1))    (29): ReLU(inplace=True)    (30): Conv2d(512, 512, kernel_size=(3, 3), stride=(1, 1), padding=(1, 1))    (31): ReLU(inplace=True)    (32): Conv2d(512, 512, kernel_size=(3, 3), stride=(1, 1), padding=(1, 1))    (33): ReLU(inplace=True)    (34): Conv2d(512, 512, kernel_size=(3, 3), stride=(1, 1), padding=(1, 1))    (35): ReLU(inplace=True)    (36): MaxPool2d(kernel_size=2, stride=2, padding=0, dilation=1, ceil_mode=False)  )  (avgpool): AdaptiveAvgPool2d(output_size=(7, 7))  (classifier): Sequential(    (0): Linear(in_features=25088, out_features=4096, bias=True)    (1): ReLU(inplace=True)    (2): Dropout(p=0.5, inplace=False)    (3): Linear(in_features=4096, out_features=4096, bias=True)    (4): ReLU(inplace=True)    (5): Dropout(p=0.5, inplace=False)    (6): Linear(in_features=4096, out_features=10, bias=True)  ))Model vgg19 ReshapedSending model to GPULearning Rate: 0.001, Weight Decay: 0, Momentum: 0Defined <class 'torch.optim.sgd.SGD'> OptimizerStarting Training at 1582575454.4784873[1,   500] loss: 1.6878416.491468191146851[1,  1000] loss: 1.11950012.860098361968994[1,  1500] loss: 0.98564619.221845626831055[1,  2000] loss: 0.87613225.574
…
ne  ship  deer  ship['alexnet', 'densenet121', 'densenet161', 'densenet169', 'densenet201', 'googlenet', 'inception_v3', 'mnasnet0_5', 'mnasnet0_75', 'mnasnet1_0', 'mnasnet1_3', 'mobilenet_v2', 'resnet101', 'resnet152', 'resnet18', 'resnet34', 'resnet50', 'resnext101_32x8d', 'resnext50_32x4d', 'shufflenet_v2_x0_5', 'shufflenet_v2_x1_0', 'shufflenet_v2_x1_5', 'shufflenet_v2_x2_0', 'squeezenet1_0', 'squeezenet1_1', 'vgg11', 'vgg11_bn', 'vgg13', 'vgg13_bn', 'vgg16', 'vgg16_bn', 'vgg19', 'vgg19_bn', 'wide_resnet101_2', 'wide_resnet50_2']Model vgg19_bn LoadedVGG(  (features): Sequential(    (0): Conv2d(3, 64, kernel_size=(3, 3), stride=(1, 1), padding=(1, 1))    (1): BatchNorm2d(64, eps=1e-05, momentum=0.1, affine=True, track_running_stats=True)    (2): ReLU(inplace=True)    (3): Conv2d(64, 64, kernel_size=(3, 3), stride=(1, 1), padding=(1, 1))    (4): BatchNorm2d(64, eps=1e-05, momentum=0.1, affine=True, track_running_stats=True)    (5): ReLU(inplace=True)    (6): MaxPool2d(kernel_size=2, stride=2, padding=0, dilation=1, ceil_mode=False)    (7): Conv2d(64, 128, kernel_size=(3, 3), stride=(1, 1), padding=(1, 1))    (8): BatchNorm2d(128, eps=1e-05, momentum=0.1, affine=True, track_running_stats=True)    (9): ReLU(inplace=True)    (10): Conv2d(128, 128, kernel_size=(3, 3), stride=(1, 1), padding=(1, 1))    (11): BatchNorm2d(128, eps=1e-05, momentum=0.1, affine=True, track_running_stats=True)    (12): ReLU(inplace=True)    (13): MaxPool2d(kernel_size=2, stride=2, padding=0, dilation=1, ceil_mode=False)    (14): Conv2d(128, 256, kernel_size=(3, 3), stride=(1, 1), padding=(1, 1))    (15): BatchNorm2d(256, eps=1e-05, momentum=0.1, affine=True, track_running_stats=True)    (16): ReLU(inplace=True)    (17): Conv2d(256, 256, kernel_size=(3, 3), stride=(1, 1), padding=(1, 1))    (18): BatchNorm2d(256, eps=1e-05, momentum=0.1, affine=True, track_running_stats=True)    (19): ReLU(inplace=True)    (20): Conv2d(256, 256, kernel_size=(3, 3), stride=(1, 1), padding=(1, 1))    (21): BatchNorm2d(256, eps=1e-05, momentum=0.1, affine=True, track_running_stats=True)    (22): ReLU(inplace=True)    (23): Conv2d(256, 256, kernel_size=(3, 3), stride=(1, 1), padding=(1, 1))    (24): BatchNorm2d(256, eps=1e-05, momentum=0.1, affine=True, track_running_stats=True)    (25): ReLU(inplace=True)    (26): MaxPool2d(kernel_size=2, stride=2, padding=0, dilation=1, ceil_mode=False)    (27): Conv2d(256, 512, kernel_size=(3, 3), stride=(1, 1), padding=(1, 1))    (28): BatchNorm2d(512, eps=1e-05, momentum=0.1, affine=True, track_running_stats=True)    (29): ReLU(inplace=True)    (30): Conv2d(512, 512, kernel_size=(3, 3), stride=(1, 1), padding=(1, 1))    (31): BatchNorm2d(512, eps=1e-05, momentum=0.1, affine=True, track_running_stats=True)    (32): ReLU(inplace=True)    (33): Conv2d(512, 512, kernel_size=(3, 3), stride=(1, 1), padding=(1, 1))    (34): BatchNorm2d(512, eps=1e-05, momentum=0.1, affine=True, track_running_stats=True)    (35): ReLU(inplace=True)    (36): Conv2d(512, 512, kernel_size=(3, 3), stride=(1, 1), padding=(1, 1))    (37): BatchNorm2d(512, eps=1e-05, momentum=0.1, affine=True, track_running_stats=True)    (38): ReLU(inplace=True)    (39): MaxPool2d(kernel_size=2, stride=2, padding=0, dilation=1, ceil_mode=False)    (40): Conv2d(512, 512, kernel_size=(3, 3), stride=(1, 1), padding=(1, 1))    (41): BatchNorm2d(512, eps=1e-05, momentum=0.1, affine=True, track_running_stats=True)    (42): ReLU(inplace=True)    (43): Conv2d(512, 512, kernel_size=(3, 3), stride=(1, 1), padding=(1, 1))    (44): BatchNorm2d(512, eps=1e-05, momentum=0.1, affine=True, track_running_stats=True)    (45): ReLU(inplace=True)    (46): Conv2d(512, 512, kernel_size=(3, 3), stride=(1, 1), padding=(1, 1))    (47): BatchNorm2d(512, eps=1e-05, momentum=0.1, affine=True, track_running_stats=True)    (48): ReLU(inplace=True)    (49): Conv2d(512, 512, kernel_size=(3, 3), stride=(1, 1), padding=(1, 1))    (50): BatchNorm2d(512, eps=1e-05, momentum=0.1, affine=True, track_running_stats=True)    (51): ReLU(inplace=True)    (52): MaxPool2d(kernel_size=2, stride=2, padding=0, dilation=1, ceil_mode=False)  )  (avgpool): AdaptiveAvgPool2d(output_size=(7, 7))  (classifier): Sequential(    (0): Linear(in_features=25088, out_features=4096, bias=True)    (1): ReLU(inplace=True)    (2): Dropout(p=0.5, inplace=False)    (3): Linear(in_features=4096, out_features=4096, bias=True)    (4): ReLU(inplace=True)    (5): Dropout(p=0.5, inplace=False)    (6): Linear(in_features=4096, out_features=10, bias=True)  ))Model vgg19_bn ReshapedSending model to GPULearning Rate: 0.001, Weight Decay: 0, Momentum: 0Defined <class 'torch.optim.sgd.SGD'> OptimizerStarting Training at 1582576280.8050332[1,   500] loss: 2.1160007.443515062332153[1,  1000] loss: 1.77407414.711747884750366[1,  1500] loss: 1.63870622.04036855697632[1,  2000] loss: 1.49614529.3
…
lane   car  ship['alexnet', 'densenet121', 'densenet161', 'densenet169', 'densenet201', 'googlenet', 'inception_v3', 'mnasnet0_5', 'mnasnet0_75', 'mnasnet1_0', 'mnasnet1_3', 'mobilenet_v2', 'resnet101', 'resnet152', 'resnet18', 'resnet34', 'resnet50', 'resnext101_32x8d', 'resnext50_32x4d', 'shufflenet_v2_x0_5', 'shufflenet_v2_x1_0', 'shufflenet_v2_x1_5', 'shufflenet_v2_x2_0', 'squeezenet1_0', 'squeezenet1_1', 'vgg11', 'vgg11_bn', 'vgg13', 'vgg13_bn', 'vgg16', 'vgg16_bn', 'vgg19', 'vgg19_bn', 'wide_resnet101_2', 'wide_resnet50_2']Model mnasnet0_5 LoadedMNASNet(  (layers): Sequential(    (0): Conv2d(3, 16, kernel_size=(3, 3), stride=(2, 2), padding=(1, 1), bias=False)    (1): BatchNorm2d(16, eps=1e-05, momentum=0.00029999999999996696, affine=True, track_running_stats=True)    (2): ReLU(inplace=True)    (3): Conv2d(16, 16, kernel_size=(3, 3), stride=(1, 1), padding=(1, 1), groups=16, bias=False)    (4): BatchNorm2d(16, eps=1e-05, momentum=0.00029999999999996696, affine=True, track_running_stats=True)    (5): ReLU(inplace=True)    (6): Conv2d(16, 8, kernel_size=(1, 1), stride=(1, 1), bias=False)    (7): BatchNorm2d(8, eps=1e-05, momentum=0.00029999999999996696, affine=True, track_running_stats=True)    (8): Sequential(      (0): _InvertedResidual(        (layers): Sequential(          (0): Conv2d(8, 24, kernel_size=(1, 1), stride=(1, 1), bias=False)          (1): BatchNorm2d(24, eps=1e-05, momentum=0.00029999999999996696, affine=True, track_running_stats=True)          (2): ReLU(inplace=True)          (3): Conv2d(24, 24, kernel_size=(3, 3), stride=(2, 2), padding=(1, 1), groups=24, bias=False)          (4): BatchNorm2d(24, eps=1e-05, momentum=0.00029999999999996696, affine=True, track_running_stats=True)          (5): ReLU(inplace=True)          (6): Conv2d(24, 16, kernel_size=(1, 1), stride=(1, 1), bias=False)          (7): BatchNorm2d(16, eps=1e-05, momentum=0.00029999999999996696, affine=True, track_running_stats=True)        )      )      (1): _InvertedResidual(        (layers): Sequential(          (0): Conv2d(16, 48, kernel_size=(1, 1), stride=(1, 1), bias=False)          (1): BatchNorm2d(48, eps=1e-05, momentum=0.00029999999999996696, affine=True, track_running_stats=True)          (2): ReLU(inplace=True)          (3): Conv2d(48, 48, kernel_size=(3, 3), stride=(1, 1), padding=(1, 1), groups=48, bias=False)          (4): BatchNorm2d(48, eps=1e-05, momentum=0.00029999999999996696, affine=True, track_running_stats=True)          (5): ReLU(inplace=True)          (6): Conv2d(48, 16, kernel_size=(1, 1), stride=(1, 1), bias=False)          (7): BatchNorm2d(16, eps=1e-05, momentum=0.00029999999999996696, affine=True, track_running_stats=True)        )      )      (2): _InvertedResidual(        (layers): Sequential(          (0): Conv2d(16, 48, kernel_size=(1, 1), stride=(1, 1), bias=False)          (1): BatchNorm2d(48, eps=1e-05, momentum=0.00029999999999996696, affine=True, track_running_stats=True)          (2): ReLU(inplace=True)          (3): Conv2d(48, 48, kernel_size=(3, 3), stride=(1, 1), padding=(1, 1), groups=48, bias=False)          (4): BatchNorm2d(48, eps=1e-05, momentum=0.00029999999999996696, affine=True, track_running_stats=True)          (5): ReLU(inplace=True)          (6): Conv2d(48, 16, kernel_size=(1, 1), stride=(1, 1), bias=False)          (7): BatchNorm2d(16, eps=1e-05, momentum=0.00029999999999996696, affine=True, track_running_stats=True)        )      )    )    (9): Sequential(      (0): _InvertedResidual(        (layers): Sequential(          (0): Conv2d(16, 48, kernel_size=(1, 1), stride=(1, 1), bias=False)          (1): BatchNorm2d(48, eps=1e-05, momentum=0.00029999999999996696, affine=True, track_running_stats=True)          (2): ReLU(inplace=True)          (3): Conv2d(48, 48, kernel_size=(5, 5), stride=(2, 2), padding=(2, 2), groups=48, bias=False)          (4): BatchNorm2d(48, eps=1e-05, momentum=0.00029999999999996696, affine=True, track_running_stats=True)          (5): ReLU(inplace=True)          (6): Conv2d(48, 24, kernel_size=(1, 1), stride=(1, 1), bias=False)          (7): BatchNorm2d(24, eps=1e-05, momentum=0.00029999999999996696, affine=True, track_running_stats=True)        )      )      (1): _InvertedResidual(        (layers): Sequential(          (0): Conv2d(24, 72, kernel_size=(1, 1), stride=(1, 1), bias=False)          (1): BatchNorm2d(72, eps=1e-05, momentum=0.00029999999999996696, affine=True, track_running_stats=True)          (2): ReLU(inplace=True)          (3): Conv2d(72, 72, kernel_size=(5, 5), stride=(1, 1), padding=(2, 2), groups=72, bias=False)          (4): BatchNorm2d(72, eps=1e-05, momentum=0.00029999999999996696, affine=True, track_running_stats=True)          (5): ReLU(inplace=True)          (6): Conv2d(72, 24, kernel_size=(1, 1), stride=(1, 1), bias=False)          (7): BatchNorm2d(24, eps=1e-05, momentum=0.00029999999999996696, affine=True, track_running_stats=True)        )      )      (2): _InvertedResidual(        (layers): Sequential(          (0): Conv2d(24, 72, kernel_size=(1, 1), stride=(1, 1), bias=False)          (1): BatchNorm2d(72, eps=1e-05, momentum=0.00029999999999996696, affine=True, track_running_stats=True)          (2): ReLU(inplace=True)          (3): Conv2d(72, 72, kernel_size=(5, 5), stride=(1, 1), padding=(2, 2), groups=72, bias=False)          (4): BatchNorm2d(72, eps=1e-05, momentum=0.00029999999999996696, affine=True, track_running_stats=True)          (5): ReLU(inplace=True)          (6): Conv2d(72, 24, kernel_size=(1, 1), stride=(1, 1), bias=False)          (7): BatchNorm2d(24, eps=1e-05, momentum=0.00029999999999996696, affine=True, track_running_stats=True)        )      )    )    (10): Sequential(      (0): _InvertedResidual(        (layers): Sequential(          (0): Conv2d(24, 144, kernel_size=(1, 1), stride=(1, 1), bias=False)          (1): BatchNorm2d(144, eps=1e-05, momentum=0.00029999999999996696, affine=True, track_running_stats=True)          (2): ReLU(inplace=True)          (3): Conv2d(144, 144, kernel_size=(5, 5), stride=(2, 2), padding=(2, 2), groups=144, bias=False)          (4): BatchNorm2d(144, eps=1e-05, momentum=0.00029999999999996696, affine=True, track_running_stats=True)          (5): ReLU(inplace=True)          (6): Conv2d(144, 40, kernel_size=(1, 1), stride=(1, 1), bias=False)          (7): BatchNorm2d(40, eps=1e-05, momentum=0.00029999999999996696, affine=True, track_running_stats=True)        )      )      (1): _InvertedResidual(        (layers): Sequential(          (0): Conv2d(40, 240, kernel_size=(1, 1), stride=(1, 1), bias=False)          (1): BatchNorm2d(240, eps=1e-05, momentum=0.00029999999999996696, affine=True, track_running_stats=True)          (2): ReLU(inplace=True)          (3): Conv2d(240, 240, kernel_size=(5, 5), stride=(1, 1), padding=(2, 2), groups=240, bias=False)          (4): BatchNorm2d(240, eps=1e-05, momentum=0.00029999999999996696, affine=True, track_running_stats=True)          (5): ReLU(inplace=True)          (6): Conv2d(240, 40, kernel_size=(1, 1), stride=(1, 1), bias=False)          (7): BatchNorm2d(40, eps=1e-05, momentum=0.00029999999999996696, affine=True, track_running_stats=True)        )      )      (2): _InvertedResidual(        (layers): Sequential(          (0): Conv2d(40, 240, kernel_size=(1, 1), stride=(1, 1), bias=False)          (1): BatchNorm2d(240, eps=1e-05, momentum=0.00029999999999996696, affine=True, track_running_stats=True)          (2): ReLU(inplace=True)          (3): Conv2d(240, 240, kernel_size=(5, 5), stride=(1, 1), padding=(2, 2), groups=240, bias=False)          (4): BatchNorm2d(240, eps=1e-05, momentum=0.00029999999999996696, affine=True, track_running_stats=True)          (5): ReLU(inplace=True)          (6): Conv2d(240, 40, kernel_size=(1, 1), stride=(1, 1), bias=False)          (7): BatchNorm2d(40, eps=1e-05, momentum=0.00029999999999996696, affine=True, track_running_stats=True)        )      )    )    (11): Sequential(      (0): _InvertedResidual(        (layers): Sequential(          (0): Conv2d(40, 240, kernel_size=(1, 1), stride=(1, 1), bias=False)          (1): BatchNorm2d(240, eps=1e-05, momentum=0.00029999999999996696, affine=True, track_running_stats=True)          (2): ReLU(inplace=True)          (3): Conv2d(240, 240, kernel_size=(3, 3), stride=(1, 1), padding=(1, 1), groups=240, bias=False)          (4): BatchNorm2d(240, eps=1e-05, momentum=0.00029999999999996696, affine=True, track_running_stats=True)          (5): ReLU(inplace=True)          (6): Conv2d(240, 48, kernel_size=(1, 1), stride=(1, 1), bias=False)          (7): BatchNorm2d(48, eps=1e-05, momentum=0.00029999999999996696, affine=True, track_running_stats=True)        )      )      (1): _InvertedResidual(        (layers): Sequential(          (0): Conv2d(48, 288, kernel_size=(1, 1), stride=(1, 1), bias=False)          (1): BatchNorm2d(288, eps=1e-05, momentum=0.00029999999999996696, affine=True, track_running_stats=True)          (2): ReLU(inplace=True)          (3): Conv2d(288, 288, kernel_size=(3, 3), stride=(1, 1), padding=(1, 1), groups=288, bias=False)          (4): BatchNorm2d(288, eps=1e-05, momentum=0.00029999999999996696, affine=True, track_running_stats=True)          (5): ReLU(inplace=True)          (6): Conv2d(288, 48, kernel_size=(1, 1), stride=(1, 1), bias=False)          (7): BatchNorm2d(48, eps=1e-05, momentum=0.00029999999999996696, affine=True, track_running_stats=True)        )      )    )    (12): Sequential(      (0): _InvertedResidual(        (layers): Sequential(          (0): Conv2d(48, 288, kernel_size=(1, 1), stride=(1, 1), bias=False)          (1): BatchNorm2d(288, eps=1e-05, momentum=0.00029999999999996696, affine=True, track_running_stats=True)          (2): ReLU(inplace=True)          (3): Conv2d(288, 288, kernel_size=(5, 5), stride=(2, 2), padding=(2, 2), groups=288, bias=False)          (4): BatchNorm2d(288, eps=1e-05, momentum=0.00029999999999996696, affine=True, track_running_stats=True)          (5): ReLU(inplace=True)          (6): Conv2d(288, 96, kernel_size=(1, 1), stride=(1, 1), bias=False)          (7): BatchNorm2d(96, eps=1e-05, momentum=0.00029999999999996696, affine=True, track_running_stats=True)        )      )      (1): _InvertedResidual(        (layers): Sequential(          (0): Conv2d(96, 576, kernel_size=(1, 1), stride=(1, 1), bias=False)          (1): BatchNorm2d(576, eps=1e-05, momentum=0.00029999999999996696, affine=True, track_running_stats=True)          (2): ReLU(inplace=True)          (3): Conv2d(576, 576, kernel_size=(5, 5), stride=(1, 1), padding=(2, 2), groups=576, bias=False)          (4): BatchNorm2d(576, eps=1e-05, momentum=0.00029999999999996696, affine=True, track_running_stats=True)          (5): ReLU(inplace=True)          (6): Conv2d(576, 96, kernel_size=(1, 1), stride=(1, 1), bias=False)          (7): BatchNorm2d(96, eps=1e-05, momentum=0.00029999999999996696, affine=True, track_running_stats=True)        )      )      (2): _InvertedResidual(        (layers): Sequential(          (0): Conv2d(96, 576, kernel_size=(1, 1), stride=(1, 1), bias=False)          (1): BatchNorm2d(576, eps=1e-05, momentum=0.00029999999999996696, affine=True, track_running_stats=True)          (2): ReLU(inplace=True)          (3): Conv2d(576, 576, kernel_size=(5, 5), stride=(1, 1), padding=(2, 2), groups=576, bias=False)          (4): BatchNorm2d(576, eps=1e-05, momentum=0.00029999999999996696, affine=True, track_running_stats=True)          (5): ReLU(inplace=True)          (6): Conv2d(576, 96, kernel_size=(1, 1), stride=(1, 1), bias=False)          (7): BatchNorm2d(96, eps=1e-05, momentum=0.00029999999999996696, affine=True, track_running_stats=True)        )      )      (3): _InvertedResidual(        (layers): Sequential(          (0): Conv2d(96, 576, kernel_size=(1, 1), stride=(1, 1), bias=False)          (1): BatchNorm2d(576, eps=1e-05, momentum=0.00029999999999996696, affine=True, track_running_stats=True)          (2): ReLU(inplace=True)          (3): Conv2d(576, 576, kernel_size=(5, 5), stride=(1, 1), padding=(2, 2), groups=576, bias=False)          (4): BatchNorm2d(576, eps=1e-05, momentum=0.00029999999999996696, affine=True, track_running_stats=True)          (5): ReLU(inplace=True)          (6): Conv2d(576, 96, kernel_size=(1, 1), stride=(1, 1), bias=False)          (7): BatchNorm2d(96, eps=1e-05, momentum=0.00029999999999996696, affine=True, track_running_stats=True)        )      )    )    (13): Sequential(      (0): _InvertedResidual(        (layers): Sequential(          (0): Conv2d(96, 576, kernel_size=(1, 1), stride=(1, 1), bias=False)          (1): BatchNorm2d(576, eps=1e-05, momentum=0.00029999999999996696, affine=True, track_running_stats=True)          (2): ReLU(inplace=True)          (3): Conv2d(576, 576, kernel_size=(3, 3), stride=(1, 1), padding=(1, 1), groups=576, bias=False)          (4): BatchNorm2d(576, eps=1e-05, momentum=0.00029999999999996696, affine=True, track_running_stats=True)          (5): ReLU(inplace=True)          (6): Conv2d(576, 160, kernel_size=(1, 1), stride=(1, 1), bias=False)          (7): BatchNorm2d(160, eps=1e-05, momentum=0.00029999999999996696, affine=True, track_running_stats=True)        )      )    )    (14): Conv2d(160, 1280, kernel_size=(1, 1), stride=(1, 1), bias=False)    (15): BatchNorm2d(1280, eps=1e-05, momentum=0.00029999999999996696, affine=True, track_running_stats=True)    (16): ReLU(inplace=True)  )  (classifier): Linear(in_features=1280, out_features=10, bias=True))Model mnasnet0_5 ReshapedSending model to GPULearning Rate: 0.001, Weight Decay: 0, Momentum: 0Defined <class 'torch.optim.sgd.SGD'> OptimizerStarting Training at 1582577233.083931[1,   500] loss: 2.30434811.026583194732666[1,  1000] loss: 2.30319021.71029305458069[1,  1500] loss: 2.30162732.37524080276489[1,  2000] loss: 2.30174743.00220
…
ensenet121', 'densenet161', 'densenet169', 'densenet201', 'googlenet', 'inception_v3', 'mnasnet0_5', 'mnasnet0_75', 'mnasnet1_0', 'mnasnet1_3', 'mobilenet_v2', 'resnet101', 'resnet152', 'resnet18', 'resnet34', 'resnet50', 'resnext101_32x8d', 'resnext50_32x4d', 'shufflenet_v2_x0_5', 'shufflenet_v2_x1_0', 'shufflenet_v2_x1_5', 'shufflenet_v2_x2_0', 'squeezenet1_0', 'squeezenet1_1', 'vgg11', 'vgg11_bn', 'vgg13', 'vgg13_bn', 'vgg16', 'vgg16_bn', 'vgg19', 'vgg19_bn', 'wide_resnet101_2', 'wide_resnet50_2']Model mobilenet_v2 LoadedMobileNetV2(  (features): Sequential(    (0): ConvBNReLU(      (0): Conv2d(3, 32, kernel_size=(3, 3), stride=(2, 2), padding=(1, 1), bias=False)      (1): BatchNorm2d(32, eps=1e-05, momentum=0.1, affine=True, track_running_stats=True)      (2): ReLU6(inplace=True)    )    (1): InvertedResidual(      (conv): Sequential(        (0): ConvBNReLU(          (0): Conv2d(32, 32, kernel_size=(3, 3), stride=(1, 1), padding=(1, 1), groups=32, bias=False)          (1): BatchNorm2d(32, eps=1e-05, momentum=0.1, affine=True, track_running_stats=True)          (2): ReLU6(inplace=True)        )        (1): Conv2d(32, 16, kernel_size=(1, 1), stride=(1, 1), bias=False)        (2): BatchNorm2d(16, eps=1e-05, momentum=0.1, affine=True, track_running_stats=True)      )    )    (2): InvertedResidual(      (conv): Sequential(        (0): ConvBNReLU(          (0): Conv2d(16, 96, kernel_size=(1, 1), stride=(1, 1), bias=False)          (1): BatchNorm2d(96, eps=1e-05, momentum=0.1, affine=True, track_running_stats=True)          (2): ReLU6(inplace=True)        )        (1): ConvBNReLU(          (0): Conv2d(96, 96, kernel_size=(3, 3), stride=(2, 2), padding=(1, 1), groups=96, bias=False)          (1): BatchNorm2d(96, eps=1e-05, momentum=0.1, affine=True, track_running_stats=True)          (2): ReLU6(inplace=True)        )        (2): Conv2d(96, 24, kernel_size=(1, 1), stride=(1, 1), bias=False)        (3): BatchNorm2d(24, eps=1e-05, momentum=0.1, affine=True, track_running_stats=True)      )    )    (3): InvertedResidual(      (conv): Sequential(        (0): ConvBNReLU(          (0): Conv2d(24, 144, kernel_size=(1, 1), stride=(1, 1), bias=False)          (1): BatchNorm2d(144, eps=1e-05, momentum=0.1, affine=True, track_running_stats=True)          (2): ReLU6(inplace=True)        )        (1): ConvBNReLU(          (0): Conv2d(144, 144, kernel_size=(3, 3), stride=(1, 1), padding=(1, 1), groups=144, bias=False)          (1): BatchNorm2d(144, eps=1e-05, momentum=0.1, affine=True, track_running_stats=True)          (2): ReLU6(inplace=True)        )        (2): Conv2d(144, 24, kernel_size=(1, 1), stride=(1, 1), bias=False)        (3): BatchNorm2d(24, eps=1e-05, momentum=0.1, affine=True, track_running_stats=True)      )    )    (4): InvertedResidual(      (conv): Sequential(        (0): ConvBNReLU(          (0): Conv2d(24, 144, kernel_size=(1, 1), stride=(1, 1), bias=False)          (1): BatchNorm2d(144, eps=1e-05, momentum=0.1, affine=True, track_running_stats=True)          (2): ReLU6(inplace=True)        )        (1): ConvBNReLU(          (0): Conv2d(144, 144, kernel_size=(3, 3), stride=(2, 2), padding=(1, 1), groups=144, bias=False)          (1): BatchNorm2d(144, eps=1e-05, momentum=0.1, affine=True, track_running_stats=True)          (2): ReLU6(inplace=True)        )        (2): Conv2d(144, 32, kernel_size=(1, 1), stride=(1, 1), bias=False)        (3): BatchNorm2d(32, eps=1e-05, momentum=0.1, affine=True, track_running_stats=True)      )    )    (5): InvertedResidual(      (conv): Sequential(        (0): ConvBNReLU(          (0): Conv2d(32, 192, kernel_size=(1, 1), stride=(1, 1), bias=False)          (1): BatchNorm2d(192, eps=1e-05, momentum=0.1, affine=True, track_running_stats=True)          (2): ReLU6(inplace=True)        )        (1): ConvBNReLU(          (0): Conv2d(192, 192, kernel_size=(3, 3), stride=(1, 1), padding=(1, 1), groups=192, bias=False)          (1): BatchNorm2d(192, eps=1e-05, momentum=0.1, affine=True, track_running_stats=True)          (2): ReLU6(inplace=True)        )        (2): Conv2d(192, 32, kernel_size=(1, 1), stride=(1, 1), bias=False)        (3): BatchNorm2d(32, eps=1e-05, momentum=0.1, affine=True, track_running_stats=True)      )    )    (6): InvertedResidual(      (conv): Sequential(        (0): ConvBNReLU(          (0): Conv2d(32, 192, kernel_size=(1, 1), stride=(1, 1), bias=False)          (1): BatchNorm2d(192, eps=1e-05, momentum=0.1, affine=True, track_running_stats=True)          (2): ReLU6(inplace=True)        )        (1): ConvBNReLU(          (0): Conv2d(192, 192, kernel_size=(3, 3), stride=(1, 1), padding=(1, 1), groups=192, bias=False)          (1): BatchNorm2d(192, eps=1e-05, momentum=0.1, affine=True, track_running_stats=True)          (2): ReLU6(inplace=True)        )        (2): Conv2d(192, 32, kernel_size=(1, 1), stride=(1, 1), bias=False)        (3): BatchNorm2d(32, eps=1e-05, momentum=0.1, affine=True, track_running_stats=True)      )    )    (7): InvertedResidual(      (conv): Sequential(        (0): ConvBNReLU(          (0): Conv2d(32, 192, kernel_size=(1, 1), stride=(1, 1), bias=False)          (1): BatchNorm2d(192, eps=1e-05, momentum=0.1, affine=True, track_running_stats=True)          (2): ReLU6(inplace=True)        )        (1): ConvBNReLU(          (0): Conv2d(192, 192, kernel_size=(3, 3), stride=(2, 2), padding=(1, 1), groups=192, bias=False)          (1): BatchNorm2d(192, eps=1e-05, momentum=0.1, affine=True, track_running_stats=True)          (2): ReLU6(inplace=True)        )        (2): Conv2d(192, 64, kernel_size=(1, 1), stride=(1, 1), bias=False)        (3): BatchNorm2d(64, eps=1e-05, momentum=0.1, affine=True, track_running_stats=True)      )    )    (8): InvertedResidual(      (conv): Sequential(        (0): ConvBNReLU(          (0): Conv2d(64, 384, kernel_size=(1, 1), stride=(1, 1), bias=False)          (1): BatchNorm2d(384, eps=1e-05, momentum=0.1, affine=True, track_running_stats=True)          (2): ReLU6(inplace=True)        )        (1): ConvBNReLU(          (0): Conv2d(384, 384, kernel_size=(3, 3), stride=(1, 1), padding=(1, 1), groups=384, bias=False)          (1): BatchNorm2d(384, eps=1e-05, momentum=0.1, affine=True, track_running_stats=True)          (2): ReLU6(inplace=True)        )        (2): Conv2d(384, 64, kernel_size=(1, 1), stride=(1, 1), bias=False)        (3): BatchNorm2d(64, eps=1e-05, momentum=0.1, affine=True, track_running_stats=True)      )    )    (9): InvertedResidual(      (conv): Sequential(        (0): ConvBNReLU(          (0): Conv2d(64, 384, kernel_size=(1, 1), stride=(1, 1), bias=False)          (1): BatchNorm2d(384, eps=1e-05, momentum=0.1, affine=True, track_running_stats=True)          (2): ReLU6(inplace=True)        )        (1): ConvBNReLU(          (0): Conv2d(384, 384, kernel_size=(3, 3), stride=(1, 1), padding=(1, 1), groups=384, bias=False)          (1): BatchNorm2d(384, eps=1e-05, momentum=0.1, affine=True, track_running_stats=True)          (2): ReLU6(inplace=True)        )        (2): Conv2d(384, 64, kernel_size=(1, 1), stride=(1, 1), bias=False)        (3): BatchNorm2d(64, eps=1e-05, momentum=0.1, affine=True, track_running_stats=True)      )    )    (10): InvertedResidual(      (conv): Sequential(        (0): ConvBNReLU(          (0): Conv2d(64, 384, kernel_size=(1, 1), stride=(1, 1), bias=False)          (1): BatchNorm2d(384, eps=1e-05, momentum=0.1, affine=True, track_running_stats=True)          (2): ReLU6(inplace=True)        )        (1): ConvBNReLU(          (0): Conv2d(384, 384, kernel_size=(3, 3), stride=(1, 1), padding=(1, 1), groups=384, bias=False)          (1): BatchNorm2d(384, eps=1e-05, momentum=0.1, affine=True, track_running_stats=True)          (2): ReLU6(inplace=True)        )        (2): Conv2d(384, 64, kernel_size=(1, 1), stride=(1, 1), bias=False)        (3): BatchNorm2d(64, eps=1e-05, momentum=0.1, affine=True, track_running_stats=True)      )    )    (11): InvertedResidual(      (conv): Sequential(        (0): ConvBNReLU(          (0): Conv2d(64, 384, kernel_size=(1, 1), stride=(1, 1), bias=False)          (1): BatchNorm2d(384, eps=1e-05, momentum=0.1, affine=True, track_running_stats=True)          (2): ReLU6(inplace=True)        )        (1): ConvBNReLU(          (0): Conv2d(384, 384, kernel_size=(3, 3), stride=(1, 1), padding=(1, 1), groups=384, bias=False)          (1): BatchNorm2d(384, eps=1e-05, momentum=0.1, affine=True, track_running_stats=True)          (2): ReLU6(inplace=True)        )        (2): Conv2d(384, 96, kernel_size=(1, 1), stride=(1, 1), bias=False)        (3): BatchNorm2d(96, eps=1e-05, momentum=0.1, affine=True, track_running_stats=True)      )    )    (12): InvertedResidual(      (conv): Sequential(        (0): ConvBNReLU(          (0): Conv2d(96, 576, kernel_size=(1, 1), stride=(1, 1), bias=False)          (1): BatchNorm2d(576, eps=1e-05, momentum=0.1, affine=True, track_running_stats=True)          (2): ReLU6(inplace=True)        )        (1): ConvBNReLU(          (0): Conv2d(576, 576, kernel_size=(3, 3), stride=(1, 1), padding=(1, 1), groups=576, bias=False)          (1): BatchNorm2d(576, eps=1e-05, momentum=0.1, affine=True, track_running_stats=True)          (2): ReLU6(inplace=True)        )        (2): Conv2d(576, 96, kernel_size=(1, 1), stride=(1, 1), bias=False)        (3): BatchNorm2d(96, eps=1e-05, momentum=0.1, affine=True, track_running_stats=True)      )    )    (13): InvertedResidual(      (conv): Sequential(        (0): ConvBNReLU(          (0): Conv2d(96, 576, kernel_size=(1, 1), stride=(1, 1), bias=False)          (1): BatchNorm2d(576, eps=1e-05, momentum=0.1, affine=True, track_running_stats=True)          (2): ReLU6(inplace=True)        )        (1): ConvBNReLU(          (0): Conv2d(576, 576, kernel_size=(3, 3), stride=(1, 1), padding=(1, 1), groups=576, bias=False)          (1): BatchNorm2d(576, eps=1e-05, momentum=0.1, affine=True, track_running_stats=True)          (2): ReLU6(inplace=True)        )        (2): Conv2d(576, 96, kernel_size=(1, 1), stride=(1, 1), bias=False)        (3): BatchNorm2d(96, eps=1e-05, momentum=0.1, affine=True, track_running_stats=True)      )    )    (14): InvertedResidual(      (conv): Sequential(        (0): ConvBNReLU(          (0): Conv2d(96, 576, kernel_size=(1, 1), stride=(1, 1), bias=False)          (1): BatchNorm2d(576, eps=1e-05, momentum=0.1, affine=True, track_running_stats=True)          (2): ReLU6(inplace=True)        )        (1): ConvBNReLU(          (0): Conv2d(576, 576, kernel_size=(3, 3), stride=(2, 2), padding=(1, 1), groups=576, bias=False)          (1): BatchNorm2d(576, eps=1e-05, momentum=0.1, affine=True, track_running_stats=True)          (2): ReLU6(inplace=True)        )        (2): Conv2d(576, 160, kernel_size=(1, 1), stride=(1, 1), bias=False)        (3): BatchNorm2d(160, eps=1e-05, momentum=0.1, affine=True, track_running_stats=True)      )    )    (15): InvertedResidual(      (conv): Sequential(        (0): ConvBNReLU(          (0): Conv2d(160, 960, kernel_size=(1, 1), stride=(1, 1), bias=False)          (1): BatchNorm2d(960, eps=1e-05, momentum=0.1, affine=True, track_running_stats=True)          (2): ReLU6(inplace=True)        )        (1): ConvBNReLU(          (0): Conv2d(960, 960, kernel_size=(3, 3), stride=(1, 1), padding=(1, 1), groups=960, bias=False)          (1): BatchNorm2d(960, eps=1e-05, momentum=0.1, affine=True, track_running_stats=True)          (2): ReLU6(inplace=True)        )        (2): Conv2d(960, 160, kernel_size=(1, 1), stride=(1, 1), bias=False)        (3): BatchNorm2d(160, eps=1e-05, momentum=0.1, affine=True, track_running_stats=True)      )    )    (16): InvertedResidual(      (conv): Sequential(        (0): ConvBNReLU(          (0): Conv2d(160, 960, kernel_size=(1, 1), stride=(1, 1), bias=False)          (1): BatchNorm2d(960, eps=1e-05, momentum=0.1, affine=True, track_running_stats=True)          (2): ReLU6(inplace=True)        )        (1): ConvBNReLU(          (0): Conv2d(960, 960, kernel_size=(3, 3), stride=(1, 1), padding=(1, 1), groups=960, bias=False)          (1): BatchNorm2d(960, eps=1e-05, momentum=0.1, affine=True, track_running_stats=True)          (2): ReLU6(inplace=True)        )        (2): Conv2d(960, 160, kernel_size=(1, 1), stride=(1, 1), bias=False)        (3): BatchNorm2d(160, eps=1e-05, momentum=0.1, affine=True, track_running_stats=True)      )    )    (17): InvertedResidual(      (conv): Sequential(        (0): ConvBNReLU(          (0): Conv2d(160, 960, kernel_size=(1, 1), stride=(1, 1), bias=False)          (1): BatchNorm2d(960, eps=1e-05, momentum=0.1, affine=True, track_running_stats=True)          (2): ReLU6(inplace=True)        )        (1): ConvBNReLU(          (0): Conv2d(960, 960, kernel_size=(3, 3), stride=(1, 1), padding=(1, 1), groups=960, bias=False)          (1): BatchNorm2d(960, eps=1e-05, momentum=0.1, affine=True, track_running_stats=True)          (2): ReLU6(inplace=True)        )        (2): Conv2d(960, 320, kernel_size=(1, 1), stride=(1, 1), bias=False)        (3): BatchNorm2d(320, eps=1e-05, momentum=0.1, affine=True, track_running_stats=True)      )    )    (18): ConvBNReLU(      (0): Conv2d(320, 1280, kernel_size=(1, 1), stride=(1, 1), bias=False)      (1): BatchNorm2d(1280, eps=1e-05, momentum=0.1, affine=True, track_running_stats=True)      (2): ReLU6(inplace=True)    )  )  (classifier): Linear(in_features=1280, out_features=10, bias=True))Model mobilenet_v2 ReshapedSending model to GPULearning Rate: 0.001, Weight Decay: 0, Momentum: 0Defined <class 'torch.optim.sgd.SGD'> OptimizerStarting Training at 1582578615.4258616[1,   500] loss: 2.34979211.085863828659058[1,  1000] loss: 2.28390922.032160997390747[1,  1500] loss: 2.26472933.08776307106018[1,  2000] loss: 2.26229743.9
…
